upscalers/model_2x.pth (torch, 35479 bytes, 5 tensors)

weight f4 [64, 1, 9, 9]
00000000: 454b 223d a67a ca3d 3850 50bd 28e3 58bd
00000010: b286 98bc f4c5 653d 8570 973c da99 d53d
00000020: bab2 9bba aaf0 903d b500 36bc f095 80bc
00000030: 16c9 eabd 9c3e c4bd 6c65 9ebd 040f 42bc
00000040: a933 713d 94a5 b43d f5e0 83bd a813 93bd
00000050: 8504 b23c 409e db3d eb7b 26bc 57bd 2b3d
00000060: 0d2a 91bd 201b 013c 05f1 083e 4835 cfbd
00000070: fa90 dfbd 1245 24bd 5d61 f73c 92aa 5d3e
00000080: 1c2d 73bc fc30 7fbd 249c b0bd c7b3 a4bd
00000090: 8a53 febc 2787 b63d a360 403d 4f67 d73d
000000a0: 8f78 143e f220 9b3d 5b63 9a3d 766f c6bd
000000b0: d20d 8ebd e918 bdbc 195a 9f3d bfb3 383d
000000c0: b1a4 b4bd 1538 443c 76df f63d 2659 fa3d
000000d0: 4ccc dc3c e2e8 db3b 9f3a cb3d 0ccb 4cbd
000000e0: 375d 843c 1609 10be c011 fdbd ac93 a6bd
000000f0: 9837 b53c eeb9 dc3c 71c4 86bd beb0 443d
00000100: 2976 923d 723a 1a3c dca0 ca3c 84e7 4d3d
00000110: 334f a03d 8b05 c43d 7b91 b4bd 4383 11bd
00000120: 5a55 383d 6c6c 983d a669 b73d d20e ef3d
00000130: 44f7 613d 53d4 a2bd ff3f 163c 03f1 7ebd
00000140: 81b4 c1bd e8e5 f53d d7a8 b13d 9af2 d5bd
00000150: edf9 0e3d 49f0 6fbb a642 14bc 19db 14bd
00000160: cbef 783d 607c 1ebd 3f5c 6d3d 51a6 833d
00000170: ee30 c33d ed9d 4d3d 1d9a e6bd 7521 97bd
00000180: f9c1 983d d41c 4e3d 7289 61bd ed51 5bbd
00000190: 0414 f13d dcc6 cd3d d03e 13bd 2f9f d3bc
000001a0: 2d33 d7bd cde2 953c 7eea 6bbd 957d 5dbd
000001b0: d4dd 033c f99d c53c d06b efbc 4346 c23d
000001c0: 7505 fabb 34e1 163e 21f3 d23d 8e83 9cbd
000001d0: cd42 e23b 5f7b 1a3d d5d6 d63c 0857 0a3d
000001e0: 7fba a83d 6bb1 dc3d b823 db3c b9da b53d
000001f0: bf7f c2bd 6ad7 0abd 8426 1bbb 2c69 46bd
00000200: a13a 22bd ba64 8bbd cfc5 493d d506 9a3d
00000210: 87c6 40bd 2920 3a3c 010a f23d ca2e 4f3b
00000220: de14 8b3c c5f4 573c 3615 6b3d a3a6 fc3d
00000230: 2495 0d3e 6a16 d43d 5eaa 0e3e 2ec0 0c3d
00000240: b3a9 d3bd 14e8 4cbd 6690 b53d 90bc 963c
00000250: 6cb0 12bd d888 95bd ceab 9cbd 163e 88bd
00000260: 1086 8c3b 3424 763d 1d0a 7f3d 5934 cbbd
00000270: 9add ad3d d892 8dbd 662b cebb e33f 89bc
00000280: 7552 5cba 6c76 afbb b338 d0bd eae1 adbd
00000290: 64ce 2ebd dc97 8abc 29ce 56bd f6ba 193d
000002a0: 67b8 bbbd 55b9 fe3c ebcd 0d3e 42aa 38bd
000002b0: 9737 df3d 7d89 353c 730d e7bd 9fa1 f63d
000002c0: c3e3 8f3d c33b 8a3c 8374 e93d 8716 c3bd
000002d0: 9ca1 0c3d 2353 ff3b 7146 a63d f562 2e3d
000002e0: 2b7c cd3d 5d85 c73d ad96 963c 9c16 3cbc
000002f0: 7e32 e8bd dab3 863d a451 053e 9cb9 0b3e
00000300: 7e2b 2abc 6266 4b3c 7fa5 fbbd 94e0 8fbd
00000310: 4204 9fbc d7c8 983d b3b6 8dbd 3913 55bc
00000320: dff6 88bb bffb a33d b1e9 e3bd 6059 01be
00000330: 5d58 a4bd bacd 083e 99b4 b33c b5f1 e73d
00000340: 975c be3c cbe3 20bd a00e 90bb b9fc 133d
00000350: e759 a93d cb90 01bc a0cd 3837 28f1 923c
00000360: f221 87bd 8f80 3bbd b4c4 ad3d da2f bdbd
00000370: 32b5 693b fffe e83d 2002 723c 548c 143a
00000380: 9a49 7ebd 1d3e 8f3d 9473 3bbd e463 f73c
00000390: a56a 0bba 41bb 98bc 2826 e9bc cd28 b43d
000003a0: fd49 3a3d 2738 0a3e 08c3 773d df92 88bd
000003b0: 36b0 a73d 9aad 64bd 6196 48bd 89d9 983c
000003c0: 0436 923d 1c99 083e 43e8 19ba 8332 c33c
000003d0: ffdd bf3d 8646 74bd 8838 103e e298 12bd
000003e0: 7573 8b3d e0b7 473d 1c51 12bc 89d4 d73c
000003f0: f203 ec3d d231 803b 175c 78bc 086a ba3c
0.039622564 0.098866746 -0.050857753 -0.052951008 -0.018618915 0.056096986 0.01848627 0.104297355
-0.0011878826 0.07077153 -0.011108567 -0.015696496 -0.11464135 -0.09582254 -0.077341884 -0.0118444
0.058887158 0.08820644 -0.064393915 -0.071814835 0.02173067 0.10723543 -0.01016138 0.041928615
-0.07088099 0.007880002 0.13373192 -0.101175845 -0.10916324 -0.040104933 0.030197794 0.21647099
-0.014842298 -0.062302575 -0.086235315 -0.08042102 -0.031045694 0.08912497 0.04696716 0.105177514
0.14499114 0.07574643 0.07538482 -0.09689228 -0.0693623 -0.023083167 0.07780857 0.045093294
-0.08820475 0.011976262 0.120543405 0.12224035 0.026952885 0.0067111114 0.099232905 -0.049998328
0.01615773 -0.14065966 -0.12356901 -0.08133635 0.022121236 0.026944127 -0.06580437 0.048020117
0.071514435 0.0094133485 0.024734907 0.05026962 0.07827606 0.0957137 -0.08816811 -0.03552557
0.045003273 0.07442555 0.08955698 0.116727486 0.05516745 -0.07950654 0.009170531 -0.062241565
-0.094582565 0.12006742 0.08674782 -0.10446663 0.034906317 -0.0036611727 -0.009049093 -0.03634176
0.06077556 -0.038692832 0.0579493 0.06428207 0.09530817 0.050199438 -0.112598635 -0.07379428
0.07458872 0.05032046 -0.05506272 -0.053544927 0.11771396 0.10047695 -0.035948575 -0.02583274
-0.10507808 0.018296624 -0.057596676 -0.054074842 0.008048493 0.024123179 -0.029226214 0.094860576
-0.007630045 0.14734346 0.103002794 -0.076422796 0.006904936 0.037715312 0.026225487 0.033774406
0.08238696 0.10776027 0.02675043 0.08879609 -0.09497022 -0.03389684 -0.002367408 -0.048440143
-0.039606694 -0.068063214 0.04926091 0.07520834 -0.04706433 0.011360207 0.11818314 0.0031613582
0.016977724 0.013180916 0.057393275 0.12336471 0.13826424 0.10355838 0.13932177 0.034362964
-0.10335102 -0.050026014 0.088654324 0.01840046 -0.03581278 -0.073014915 -0.07649957 -0.06652467
0.0042884424 0.06009312 0.062265504 -0.09922094 0.08489533 -0.06912774 -0.0062917946 -0.016754096
-0.0008404621 -0.005354693 -0.101670645 -0.08490355 -0.0426773 -0.016918115 -0.052442703 0.037531815
-0.09166031 0.031094233 0.13848083 -0.045084246 0.10899275 0.011080143 -0.11281862 0.120425455
0.07025864 0.0168742 0.11399176 -0.09525781 0.03433381 0.007791893 0.081189044 0.04257484
0.10033449 0.09742234 0.018382395 -0.01148 -0.113377556 0.06577273 0.13019425 0.13645023
-0.010386346 0.012414547 -0.12287425 -0.07025257 -0.01941121 0.07460182 -0.06919613 -0.013005071
-0.00417982 0.08007001 -0.111285575 -0.1263175 -0.080246665 0.13359728 0.021936702 0.11325399
0.02323751 -0.03927974 -0.0043962747 0.036129687 0.08269101 -0.0079080565 1.101513e-05 0.017937258
-0.065982714 -0.0457769 0.08484784 -0.092376426 0.003566098 0.11376762 0.014771014 0.00056666625
-0.06208191 0.06994269 -0.04576452 0.030198999 -0.00053183205 -0.018643977 -0.028460577 0.08796845
0.045480717 0.13497983 0.06048873 -0.066686384 0.081879064 -0.05582962 -0.048971538 0.018658416
0.07139209 0.13339657 -0.00058710965 0.023827797 0.09368514 -0.05963757 0.14084065 -0.03579033
0.06809131 0.04875934 -0.008930471 0.026346462 0.1152419 0.003912189 -0.015158675 0.022755638

bias f4 [64]
00000000: 2c24 a83d 700a 0dbc 754b 8b3d adb9 333d
00000010: 61b9 9d3d 9b89 ea3d b493 bbbb 3154 df3d
00000020: 80cc a23d 4174 f2ba 48e7 f3bb 8541 a5bd
00000030: ee47 d03d 71b0 1f3d 253a d9bd dc4d 2e3c
00000040: 335f 55bc f2b5 e93d 50a8 ef3d d526 503d
00000050: 9e32 bb3d e738 593d 617e f33d 29dc 023d
00000060: 3b8d 2b3d 4153 d73c dd12 163d 18b5 40bc
00000070: a6a3 aabc 9609 9b3d 7bfa 023d e25f 02bd
00000080: 4174 bdbc bf78 a33d 08e2 84bd 9ec7 a33c
00000090: 8064 abbd a982 b33d 7591 c13d ba63 73bd
000000a0: b226 1fbd bdc0 4cbc b7fa d63c 1297 63bd
000000b0: 9efd 08bd 4ce4 32bc 551a 1b3d 7dfe dabc
000000c0: 0963 3f3d b9f5 62bd 9c26 663c 4e70 003e
000000d0: 0f9e 953b a86f 963d 460e ba3c 3696 2ebd
000000e0: 0938 603d fcaa 22bd dd4f bd3c e65d 723d
000000f0: 8cb9 a13d 34c5 2abb 2586 40bd 044f 19bd
0.08210024 -0.0086084455 0.06801502 0.043878246 0.07701374 0.114520274 -0.0057243947 0.1090473
0.079491615 -0.0018497781 -0.0074433424 -0.080691375 0.101699695 0.038986627 -0.10606793 0.01063868
-0.013023186 0.114116564 0.11702025 0.050818283 0.09140514 0.053032782 0.11889339 0.031948242
0.041882735 0.026284816 0.036639083 -0.011761926 -0.020829987 0.07570188 0.031977158 -0.031829722
-0.023126723 0.07982015 -0.064884245 0.019992646 -0.08368778 0.08765156 0.09451572 -0.05942128
-0.038855262 -0.012497124 0.026242597 -0.055563994 -0.033444993 -0.010918688 0.03786691 -0.026732678
0.046725307 -0.05541012 0.014047291 0.12542841 0.004565961 0.073455155 0.022711884 -0.04262372
0.05474094 -0.039713845 0.02310937 0.05917158 0.078967184 -0.0026057484 -0.04700293 -0.03742887

weight f4 [32, 64, 1, 1]
00000000: c701 16be 17ec 9b3d 43d2 b0bd 0389 39bd
00000010: 179a 80bd 6109 533d 575f 2dbd dcbe 90bd
00000020: c829 34bd 67cf bb3d 43b7 fdbd e617 f9bd
00000030: 4644 4e3d e586 acbd 0a4c c93d c23f c13d
00000040: 7aaa 7cbc 1ce2 a33d d9a3 8e3c f54e 1abd
00000050: d143 94bd 649c af3d 06d2 953d d35c e9bd
00000060: 2156 8d3d 2bdf 2f3e e04f a8bd b5c4 42bc
00000070: bb60 1e3e c24f 273d 6f7c ea3c 2725 bfbc
00000080: dd2e 80bd 48eb 843d 3a1a bebd 3fe4 7cbd
00000090: 6503 f33c 41f2 843c e598 893d 8d7a acbc
000000a0: 8619 a03d d7cd 9a3d 6a77 a93e 6055 06bc
000000b0: eab8 ce3b 5ce9 ad3d ed52 0c3e 356f 173e
000000c0: 4f20 b7be 1d9f 87bd 5e9f 5bbc ed5f c6ba
000000d0: 4711 a63d 4e51 f43d ebe1 503e 0681 7d3c
000000e0: 4a3a 8dbd 21ed 2d3e 384c bc3d 1ea2 5fba
000000f0: b757 0dbd ab82 9b3d 62a5 0f3c 6b27 abbd
00000100: d0fb 05be 9fe6 4f39 5500 4dbd 0210 99bd
00000110: a728 4e3c c36f da3d 3e33 bb3d b895 713d
00000120: a4b7 dbbd faae 763d f3d7 5e3d 496d 053d
00000130: 0aad 66bd 2702 8abc a2da 8abd 12ac 16bd
00000140: d1d0 01bd ef24 c2bc 87d8 08be 402d f03c
00000150: 84d4 ebbd b8a6 d7bd 00e3 1c3d 32ed d8bd
00000160: 96f0 e43d d86f e23d 441d 47bd 3949 0ebd
00000170: 56f9 d4bd 3260 0bbc da99 153c f34b 98bd
00000180: dc82 043d 3154 afbc a53b 49bd eb68 6bbc
00000190: af2d 09be b993 cbbd 6379 4c3b b3e7 dc3d
000001a0: 1f41 c0bd 8f1c 9d3d 35ce b43b 4847 5cbd
000001b0: d559 61ba 7da0 433d e68d 123b 752a c83d
000001c0: 55e1 04bd 5e30 c7bd 0bc1 cd3d 2e2c 27bd
000001d0: 2277 893d 3d0d 913d 74f9 533c ed1b e9bd
000001e0: 7896 01be 1275 403d 009f 8a3c 4f8f 803d
000001f0: ca50 e9bd 4091 40bd 80d7 c23d 93f4 543d
00000200: 36a9 5f3e 574f 143e 7d57 2ebd 6a2a 11be
00000210: de5d 68bd 66e9 323d 89e8 603d 58c6 253c
00000220: 9c6b 363d 112a 603e 3817 d03d fc23 883d
00000230: 4d35 5fbd 2182 e83d 78b1 6fbd 053a c9bc
00000240: c8f4 67bc 6e9a b0bd 8ddf ea3d d910 1bbb
00000250: 0d5e 253d c3cd e53c de43 fb3b 40e6 48bd
00000260: c03d 85bd b91b 96bd 3014 f1bc 9b1c cc3d
00000270: f809 9cbd ea84 723d 9c2b 263d 3049 233e
00000280: 61b0 1fbb 8811 8e3d 80e9 cc3d cc54 0b3d
00000290: cf59 d43d 7854 f4bb 6c00 823d 8abb 1c3d
000002a0: 3713 debc f694 13be b6d8 dfbd 56e9 c63d
000002b0: dd31 823d 8cf6 08bd fe31 9cbc 5c2e 2a3d
000002c0: 2136 22bd 8c93 2c3d 498e 703d e742 073c
000002d0: 157d 9dbc a7f1 8e3d 750f 1f3e 6d97 dfbd
000002e0: c6e1 0cbc c10e cabd 0a5e a73d 8f96 d93d
000002f0: 99e3 00be b965 383d 5152 70bd d5be 3fbd
00000300: b26a 62bb 6f69 8f3a cdf6 0d3e 2e28 18be
00000310: 24ea 623d 9387 ebbd 72dd 173e 7fff e13d
00000320: 9013 ccbd 9319 93bc 0687 383c 281d 81bd
00000330: 9839 1cbe c52f 8a3d aa0f f13d d02d 5cbd
00000340: 6a28 663c 3b38 12bd 5b86 e0bd ff68 f53d
00000350: 89ad da3d 5aa0 e4bb 9e35 70bd 0dda 09bc
00000360: 0867 323d 5399 a6bc 0a69 49bd 2be4 11bc
00000370: 26cf 45bd 6d07 94bc b5e0 c33d 5cd3 bc3d
00000380: f253 60be f9d8 e93d c1d7 e03d 8ae7 603d
00000390: d1c5 873d e844 8b3d 3546 dc3d f875 d4bd
000003a0: f1ea 1cbd c8b4 f8bd 66e6 51bc 5204 aabd
000003b0: f10d f2bd 728c c7bd 6002 1fbc 181a fa3d
000003c0: e1c1 773d 1dee 233d 3b9b 92bd a58e d9bd
000003d0: 3547 6c3c c12f c5bd 3139 48bd bc53 0c3d
000003e0: 6a5e 943d ea90 43bc fa84 f93d 4420 07bd
000003f0: 0637 13be 7c23 3e3e ae8c 0a3e 3d73 bbbd
-0.14649116 0.0761339 -0.08633854 -0.04529668 -0.0627939 0.051522616 -0.04232725 -0.070676535
-0.04398516 0.09170418 -0.1238847 -0.121627614 0.05035808 -0.084241666 0.098289564 0.09435989
-0.015421504 0.08002111 0.017412113 -0.037672956 -0.072394975 0.08574751 0.073154494 -0.11394658
0.069011934 0.17174976 -0.0821836 -0.011887719 0.15466587 0.040847547 0.028623788 -0.023333145
-0.062589385 0.06490189 -0.09282346 -0.06174111 0.029664705 0.016228797 0.067186154 -0.02105453
0.07817368 0.07558792 0.33098918 -0.008199066 0.0063086646 0.084917754 0.13703509 0.14788516
-0.35766837 -0.06622145 -0.013404695 -0.0015134789 0.08108764 0.1192957 0.20398681 0.015472656
-0.068958834 0.16984989 0.09194225 -0.0008530932 -0.03450748 0.07593282 0.008767458 -0.08357128
-0.1308434 0.00019826971 -0.050049145 -0.074737564 0.012582934 0.10665848 0.09140633 0.058980674
-0.10728386 0.060225464 0.054405164 0.032574926 -0.056317367 -0.01684673 -0.06779982 -0.036785193
-0.031693283 -0.023699252 -0.13363849 0.029318452 -0.115151435 -0.10529846 0.03830242 -0.105921164
0.111787006 0.11056489 -0.048611894 -0.0347378 -0.103991196 -0.0085068215 0.009130919 -0.07436361
0.03235136 -0.02140245 -0.049129147 -0.014368276 -0.13396333 -0.09940285 0.0031200282 0.107863806
-0.09387421 0.07671463 0.005517746 -0.053778917 -0.0008596455 0.047760475 0.002236241 0.09773723
-0.032441456 -0.09726022 0.10046586 -0.040813617 0.06712176 0.07082603 0.012937892 -0.113822795
-0.12655056 0.046986647 0.01692152 0.06277334 -0.113923624 -0.04701352 0.095137596 0.051991057
0.21841893 0.14483391 -0.042563904 -0.14176336 -0.056730144 0.043679617 0.054909263 0.01011809
0.044536218 0.21891047 0.101606786 0.066474885 -0.05449419 0.11352945 -0.058518857 -0.024563799
-0.0141574815 -0.08623205 0.1146842 -0.0023661165 0.040372897 0.028052216 0.0076680025 -0.04904771
-0.065059185 -0.073295064 -0.029428571 0.099663936 -0.07619089 0.059208788 0.040568933 0.15945888
-0.0024366605 0.069369376 0.10005474 0.034016415 0.10368692 -0.0074563585 0.06347737 0.03826479
-0.027108772 -0.14412293 -0.10930006 0.09712474 0.06357167 -0.03343825 -0.019066807 0.041548118
-0.039602403 0.0421329 0.058729444 0.008255697 -0.019224683 0.06979685 0.1553324 -0.10917554
-0.00859875 -0.09866095 0.081722334 0.1062442 -0.12586822 0.045018885 -0.058672253 -0.04681285
-0.0034548459 0.0010941456 0.13863678 -0.14859077 0.055399075 -0.11500468 0.14830568 0.1103506
-0.09964669 -0.01795653 0.011262661 -0.06304389 -0.15256345 0.067473926 0.11770566 -0.053754628
0.014047721 -0.035698157 -0.10963126 0.11982917 0.106776305 -0.006977123 -0.058644883 -0.008413804
0.04355529 -0.020336783 -0.04917244 -0.008904497 -0.048293255 -0.018069947 0.09564344 0.09220001
-0.21907023 0.114183374 0.10978652 0.054908313 0.06629527 0.06800252 0.107555784 -0.10374063
-0.038309995 -0.12143856 -0.012811279 -0.08301605 -0.11819065 -0.09743585 -0.009705156 0.12212008
0.06048763 0.040022004 -0.07158514 -0.106229104 0.014421274 -0.09628249 -0.048882667 0.034259543
0.072445706 -0.011936406 0.121835664 -0.032989755 -0.14376459 0.18568224 0.13530228 -0.09152839

bias f4 [32]
00000000: 9b87 b43d 1ace 77bd 6ca4 9f3d 3973 e33d
00000010: ecb8 733d 4473 953d a46d 68bd 56c8 f93d
00000020: 8001 90bd daf8 9c3d 037f fb3c d240 3b3c
00000030: 4afa d63c 1ae5 87bd 21a6 c43d f809 bfbc
00000040: da31 da3d b112 2c3c 51c9 33bd 6f47 a53d
00000050: 7f9f 05bc 7808 78bd 9cb9 213c a25a b4bd
00000060: 3620 9ebd 6bf2 6fbd f2bb d63c 483b 96bd
00000070: f783 d93c ab11 9fbd 793e ebbd c5bd 2abc
0.08814927 -0.06049929 0.07795033 0.11105961 0.059502527 0.07297376 -0.056745186 0.12196414
-0.07031536 0.07664652 0.030700212 0.011429029 0.026242394 -0.066354945 0.09601999 -0.023320183
0.1065404 0.010502503 -0.043893162 0.080702655 -0.008155703 -0.06055495 0.009870913 -0.08806349
-0.077209875 -0.058580797 0.026212666 -0.07335526 0.026552184 -0.07767042 -0.11486525 -0.010421221

weight f4 [1, 32, 5, 5]
00000000: 6ccc ac3b db87 d53c 1ed2 ffbb 5015 163d
00000010: 0ed7 d3bc b3ab 463c c88e 09bd f87a 0d3d
00000020: 0ef2 3ebc f3c0 a73c 255e 0c3b 5d5f 78bc
00000030: 9b12 bdbb 3b68 5fbc 8712 c13c e7ff e53c
00000040: 5fc0 0f3d 5666 e2bb 07e0 58bc 7bd1 8ebc
00000050: 88e6 3aba 0645 353c 653a 45ba 8435 c0bc
00000060: 181d 5e3b 5d2d 4438 a4ca debc a395 0bbc
00000070: 2594 afb9 aaf2 07bd a905 c53b b2bf 303c
00000080: cbd2 11bb 57d8 77bb 7c65 023b bbd5 253c
00000090: ffd8 81bc 66da 0fbb 4767 af3c a509 17bc
000000a0: d25d 8c3a 8a72 01bd ea69 d3bc 1888 15bb
000000b0: 982b 35bc 08a9 103d 485b d9bb e419 e9bc
000000c0: 75ae ff3c b229 b2bc 32f2 f83c 56ac 70bb
000000d0: e73f 173c ac8b 07bd 2b07 0b3d 7953 b63a
000000e0: b506 97bc b575 c2bc 42aa cb3b fc6d 01bd
000000f0: 1e61 dd3c 0eec a63c a5d2 143d 60cc 053d
00000100: eda8 9fbc eb9b 2bbc 6a4c ad3c 30e2 d93c
00000110: c152 113d a99b 60bc 649f 9f3b af17 cdba
00000120: b1fb c13c 8a7e 77bc 2b87 093d 8046 20bc
00000130: f2ad 933c 51fc eb3c 91bc 0cbd dcba fe3b
00000140: 531c c8bc 923a 893c 4edb 033d cddc 2fbc
00000150: 819b bfbc c032 9bbc 3d78 e93c 844f d2ba
00000160: feff c7bc d76d f43c 44be b73c 1f28 6ebb
00000170: df65 b93b 3635 9b3b 02a0 103d 8be4 a93c
00000180: 05b4 e83b 89b2 0c3b 23b5 4e3c 9b48 c8bc
00000190: fb78 9d3c a30f 693c ba1d bb3b 2f9d af3c
000001a0: 29f4 b6bb 4740 07bd 1046 f5bc 30ec 143d
000001b0: 5ee4 26bc 8913 cfbc b310 103d 068e c2bc
000001c0: 9fae 093d 2550 093d 3cad 63bb 8def b13c
000001d0: 3b9c db3c 1502 08bd eb54 9ebc 0c24 d33b
000001e0: 7bf5 493c 7c1f c9bc a672 f8bc 45d1 0a3d
000001f0: 4336 5ebc d966 0dbd 9f3b 5d3c bec3 9cbc
00000200: 8b1b 88bc 8b1a 4abc f1af 0a3d f8d5 513c
00000210: b370 1b3d e873 48bc b0ff f63c cd2b d1bc
00000220: 5d0b c23c 9f45 2c3c da29 c93b d86a 143d
00000230: a16a 233b df67 8dbc 51bb 90bc fc42 a03b
00000240: 40d8 1ebc 41c7 943c 5d17 01bd 8278 c9bc
00000250: 8eaa f03c b51f 30bc ffb5 0ebd 8879 b33c
00000260: cbc5 78bb 1d05 f1b9 a50f cc3c 7c0a 523c
00000270: 5997 08bd 1da1 883c ba67 1a3d ec85 443b
00000280: c6db 0b3d 838e 313d 5948 033d 69dd c5bc
00000290: 9db5 1a3d 81e5 0a3d e1eb 9d3c e884 1e3c
000002a0: 93f9 a2bc bd88 613c 8c07 ddbb 418c 113d
000002b0: 1a4e f2bc c5bd 3b3c 47f1 093c 80f8 d03a
000002c0: 4624 0f3a ce30 9b3c 84eb e6bc 7be3 1f3c
000002d0: 3e02 bcbc c18b 2b3c e16c a9bb 7ef5 953b
000002e0: 7846 b23c f4b6 8dbc 4a56 0cbd 9400 9dbc
000002f0: 2d83 f83c 7fe0 e3bc cf83 9e3c bcd5 54bc
00000300: c489 cb3b 6e40 943c b42e 68bc 8094 d7bc
00000310: 1458 833c 9184 f93c 2284 8b3c c1e9 aabb
00000320: 5915 0dbc d52d 9fba 0241 7d3c f8df 9dbc
00000330: 2bd4 8b3c baa3 d2bc c324 cdbc 7e44 7d3b
00000340: b5c7 fdb8 cd9b 05bd fdf2 c6bc c1ac 2a3d
00000350: 63d1 8b3d f6e6 e6bc 3c48 c13c a4cd d6bc
00000360: bc90 193c f620 293d 8388 16bd 8e9f eabc
00000370: ed00 303c 8b19 dfbc 64b8 8fbc 6037 13bd
00000380: 33b3 eb3b c193 ba3c 2f9a 2e3c 0239 8ebb
00000390: 826b 103d 5540 f53c bd42 96bc 2250 ab3c
000003a0: 1a31 efbb 1b92 4b3c 98d1 b23b b0f4 7b3c
000003b0: a0b1 96bc a954 8dbc c085 a2bc e89d afbc
000003c0: f487 7bbc b982 0e3c ecbd 2e3c fd9d ee3b
000003d0: 7208 e33c 83b6 e23c 6d74 f43c 7ee8 c13c
000003e0: 7755 533a d44d 2b3c 47bb 8bbc 1dcc 2abb
000003f0: 195e 873b 26c7 c4bc f9d1 083d e1e1 33bc
0.0052733924 0.026065757 -0.0078070303 0.03664142 -0.025859382 0.012125897 -0.033583432 0.0345411
-0.01165439 0.020477748 0.002141842 -0.015159455 -0.00577004 -0.01363569 0.023568405 0.028076125
0.03509557 -0.006909172 -0.013237006 -0.017433872 -0.0007129689 0.01106382 -0.0007523655 -0.023463018
0.0033891853 4.677229e-05 -0.027196236 -0.008519563 -0.00033488977 -0.033190407 0.0060126376 0.010787891
-0.0022250887 -0.0037818158 0.0019896915 0.010121758 -0.015850542 -0.0021950244 0.021411551 -0.009218608
0.0010709113 -0.031603374 -0.02580734 -0.0022816714 -0.011057757 0.03531745 -0.006633196 -0.028454728
0.031211117 -0.021748397 0.030388925 -0.0036723814 0.009231544 -0.033092186 0.033942383 0.0013910375
-0.018435815 -0.023737768 0.0062153647 -0.03159903 0.027023848 0.020376232 0.0363337 0.03266561
-0.01948973 -0.010474185 0.021154601 0.026597112 0.03547931 -0.013708987 0.0048712958 -0.0015647317
0.023679586 -0.015105853 0.03357617 -0.0097824335 0.01802728 0.028806837 -0.03435952 0.00777374
-0.024427569 0.016751561 0.032191567 -0.010733795 -0.02338958 -0.018945098 0.028499717 -0.0016045426
-0.024414059 0.029837532 0.022429593 -0.0036339832 0.005657896 0.004736568 0.035308845 0.02073886
0.007101538 0.002146872 0.012616429 -0.024448683 0.019222727 0.0142249195 0.005710331 0.021437256
-0.0055833054 -0.033020284 -0.029940635 0.03635806 -0.010186283 -0.02527787 0.035172176 -0.023749363
0.033613797 0.033523697 -0.0034740707 0.021720672 0.026807895 -0.03320511 -0.019327601 0.006443506
0.0123265935 -0.024551146 -0.030328106 0.03389098 -0.013562742 -0.03452191 0.013502984 -0.019136306
-0.016614696 -0.01233543 0.033859197 0.012807362 0.037949275 -0.012234665 0.030151218 -0.025533581
0.023687059 0.010514646 0.0061390223 0.036234707 0.0024935382 -0.017261444 -0.017667444 0.0048907977
-0.009695113 0.018161418 -0.03151642 -0.024593595 0.029378202 -0.010749747 -0.034841534 0.021908537
-0.003795969 -0.00045970912 0.024909804 0.0128198825 -0.03334746 0.016678387 0.037696578 0.002998705
0.03414514 0.0433488 0.032051418 -0.024153428 0.037770856 0.03391028 0.019277515 0.009675242
-0.019894397 0.013765511 -0.0067452844 0.035534147 -0.029578257 0.011458819 0.008419341 0.0015943199
0.0005460422 0.01894417 -0.028188474 0.009758825 -0.022950288 0.010470332 -0.00517045 0.004576384
0.021762118 -0.017299153 -0.03426198 -0.019165315 0.030335987 -0.027817009 0.01934996 -0.012990411
0.0062114913 0.018097129 -0.014171291 -0.026315928 0.01603321 0.03045872 0.01703078 -0.005215854
-0.008611047 -0.0012144396 0.015457394 -0.019271836 0.017068943 -0.025712837 -0.025041943 0.003864556
-0.000121011784 -0.032619286 -0.024285788 0.041668657 0.06827047 -0.028186303 0.023594014 -0.026221104
0.009372886 0.0412912 -0.03675128 -0.028640535 0.010742408 -0.02723386 -0.017543979 -0.03594148
0.007192993 0.022775533 0.010656877 -0.004340292 0.035258777 0.029937902 -0.01834237 0.020912234
-0.0072995545 0.012424971 0.0054571144 0.015378162 -0.018395245 -0.017252283 -0.019839168 -0.0214376
-0.015352238 0.008698159 0.010665398 0.0072820173 0.027713988 0.027674919 0.029840672 0.023670431
0.00080617465 0.010455567 -0.017057074 -0.0026061602 0.0041310904 -0.024020743 0.03340337 -0.010979147
