upscalers/model_4x.pth (torch, 35479 bytes, 5 tensors)

weight f4 [64, 1, 9, 9]
00000000: c0ad 1bbe 97ca b2bd 5d8e 6fbe 3dfc 61be
00000010: 816f 35be 05d2 0ebd 3c93 f2bc 4caa 853d
00000020: 4b9d fbbc ef2e 13be a59d 4dbe 59cb 3abe
00000030: 7178 85be 8e41 63be 9d66 f3bd f535 01bd
00000040: c739 9a3c 7ed0 323d 2ebf 3cbe 85a6 26be
00000050: d494 81bd 9b8b 8139 359d d4bd 1a37 57bd
00000060: 139a 2fbe 6334 00bd 6e47 8c3d 7c19 eebd
00000070: d736 acbd 3191 d6bc ecf5 5ebc 18f5 1c3e
00000080: aebc c8bd 82f9 2cbe c3ae 11be accc dcbd
00000090: cf1e 25bd 0ab9 0a3e 9b7f b23d d562 f73d
000000a0: 4fc2 e03d 4b16 db3b 716c 403c afc0 e7bd
000000b0: 0edd 8bbd 6ed2 49bd d32e be3d 0e8f ac3d
000000c0: 12da 60bb 50fd 9c3d 4c96 ed3d ceea b43d
000000d0: 7904 ae3c c832 833c 54e7 813d 6a07 7dbd
000000e0: 8be7 9e3c 4b9a 83bd 9d52 c8bc ce3a 1fbd
000000f0: 470b 783b 7f41 80ba ebe3 abbd ad50 8a3b
00000100: 680c 443d 4e14 07bd 3c3e 8c3b 312b 523d
00000110: 41f2 703d 4e9f fb3c 3540 24be 37b5 aabd
00000120: b2c0 5eba 06a1 873d 8d37 843d cb64 a43d
00000130: 15d9 c23c 1523 0bbe 3b2e c7bd 7b3e 33be
00000140: ce7f 31be ccec 013e 421f d23d c086 bfbd
00000150: 0986 073d 08bd 3fbb 3d52 5bbc cfb4 33bd
00000160: 1bf6 6c3d 04ac 06bd a441 733d 63bb 883d
00000170: d39e be3d 83c8 633d 96bc b3bd 140e 7cbd
00000180: fa64 843d fecf 123d 16e8 70bd e93c 68bd
00000190: 1090 df3d ca71 b73d 6c7a d9bc 125d d13b
000001a0: 74c9 afbd 87b3 343c 863a 9dbd 04c5 8fbd
000001b0: 447b 79bb 5308 b03c d8c1 b5bc d6f2 db3d
000001c0: e09e 9fbb d840 153e f1e5 d73d 98d5 a3bd
000001d0: 70e8 43bc fa77 af3b d450 bd3c aa34 673d
000001e0: 5267 c73d f7e5 b23d 0f35 f33b eac8 be3d
000001f0: 04d2 b6bd 61a3 50bd 851d 02bd 78d6 5fbd
00000200: 7124 a3bc d159 4dbd 20f8 333d 9033 973d
00000210: 58ea 21bd 1472 ff3b 0efd be3d fda8 21bc
00000220: 8e0b 643b 8a37 373b e94c 523d cfff f83d
00000230: 5737 103e e2b9 c23d 32c2 ee3d a96e 053c
00000240: 995b bbbd c18c 4cbd 08f7 a13d 7bf6 3c3c
00000250: 0c01 efbc 757c 96bd e885 c2bd da5e b9bd
00000260: f63a eebb 2378 ac3d 393a 9c3d 3459 c6bd
00000270: 22e8 a53d 7a91 88bd d81b 8dbc 6d4e 16bd
00000280: a289 50bc 5ee7 653b ee1e 90bd 1103 aebd
00000290: 6890 91bc d2fd 0b3c 5e66 2bbd a6df 7a3d
000002a0: 7ce2 99bd f080 c13c 9653 ed3d cb67 1bbd
000002b0: 7403 d63d 6e6b 3f3d 4363 a7bd 5d1e b03d
000002c0: 9e35 cf3a 4322 3ebd 6564 c63d 31cd a6bd
000002d0: 537f 283c 6ebc 60bc 6b25 c73d 0df5 723d
000002e0: 1397 a03d de28 4f3d 164b 10bd 1df5 b0bc
000002f0: 60ab 9cbd e92c 3a3d 2bbb bf3d 1d97 d93d
00000300: bbaf f8bc 3e61 323d fabc 8abd 3785 99bd
00000310: c3e4 88bd b65b 3c3d b1f7 82bd 7820 5b3c
00000320: ac46 273d c0b1 eb3d 0356 5dbd 01c1 9bbd
00000330: 3cf4 c1bd 8387 993d df46 e0bc b2f8 c33d
00000340: 5017 673d ff5c 3d3d 4511 363d aa4f 4b3c
00000350: da40 8c3c 1cd1 6bbd 0ee5 3cbc b514 603c
00000360: d136 b4bd 8d4e 80bd a0c5 ac3d a263 b8bd
00000370: 905c d7bb 3cef c63d 4465 833c 87a9 b53c
00000380: d53e 7cbd 2d9c 893d 5e43 babd 1806 57bd
00000390: 102f 41bd 26ba 29bc 4071 793b 066a b63d
000003a0: b31d 013d 8f9f e73d 99f9 bf3d e1ca 87bd
000003b0: bf40 093d 2a23 c2bd a1be 5cbd 9675 f73c
000003c0: 83e6 0f3d 563c d33d 909a cdbc de52 693c
000003d0: 606a d23d b212 62bd b275 193e 5c7c 27bd
000003e0: 271a 863d 7993 333d ba15 e4bc 7fd1 633c
000003f0: 7d17 ff3d 2148 c83c b2b8 3ebc f52e b63c
-0.15202999 -0.08730047 -0.23394151 -0.22068878 -0.17718317 -0.03486826 -0.029611222 0.06526622
-0.030714652 -0.14373372 -0.20079668 -0.18241633 -0.26068452 -0.22192976 -0.11884806 -0.031545598
0.018826379 0.043655865 -0.18432304 -0.1627446 -0.06327215 0.00024708812 -0.10381547 -0.052542783
-0.17148618 -0.03129996 0.06849562 -0.116259545 -0.08408897 -0.02619228 -0.013608437 0.15327871
-0.09801613 -0.16892055 -0.14226823 -0.107812256 -0.040312584 0.1354715 0.08715745 0.120793976
0.109745614 0.006686007 0.011744604 -0.11316048 -0.06829272 -0.049272947 0.09286275 0.08425723
-0.0034309668 0.07665503 0.116009325 0.08833848 0.021242367 0.016015425 0.063429505 -0.06177465
0.019397518 -0.064259134 -0.024453456 -0.03887444 0.0037848519 -0.0009785144 -0.08393081 0.004221043
0.047863394 -0.03297835 0.00427988 0.05131072 0.05882478 0.03071561 -0.16040118 -0.08335345
-0.0008497342 0.0662251 0.06455908 0.08027037 0.023785153 -0.13587601 -0.09725615 -0.17504303
-0.1733391 0.12687987 0.10259868 -0.093518734 0.03308681 -0.0029256959 -0.013386306 -0.043873604
0.057851892 -0.03287889 0.05938877 0.06676366 0.09307637 0.055611145 -0.08776204 -0.061536863
0.06464572 0.035842888 -0.058815084 -0.056698713 0.109161496 0.089572504 -0.026547633 0.0063892687
-0.08583346 0.011029131 -0.07677178 -0.070199996 -0.0038067857 0.021488344 -0.022187158 0.10739677
-0.0048712343 0.14575517 0.10541905 -0.07999724 -0.011957273 0.0053548785 0.02310983 0.05644671
0.09736504 0.087352686 0.0074220966 0.09315665 -0.08926776 -0.05093706 -0.031766433 -0.054647893
-0.019914838 -0.050134484 0.043937802 0.07382882 -0.03953013 0.0077955816 0.0932561 -0.00986695
0.0034796926 0.0027956688 0.05134288 0.121581666 0.1408361 0.095081106 0.116581336 0.008144059
-0.0914833 -0.04993892 0.079084456 0.011533375 -0.029175304 -0.07347957 -0.09498197 -0.090512946
-0.0072702123 0.08421352 0.076282926 -0.09684983 0.081009164 -0.066683725 -0.017225191 -0.036695886
-0.012728127 0.0035080533 -0.07037149 -0.084966786 -0.017769054 0.008544402 -0.04184567 0.061248444
-0.075139016 0.023621053 0.115882084 -0.03794078 0.104498774 0.046733312 -0.081732295 0.08599541
0.0015808826 -0.046419393 0.096871175 -0.08144606 0.010284263 -0.0137168 0.09723934 0.05931573
0.07841315 0.050576083 -0.035227858 -0.021601254 -0.07649875 0.045452986 0.09361871 0.10624526
-0.030357232 0.04354977 -0.06774326 -0.07496112 -0.06684258 0.0459859 -0.063949 0.01337444
0.040838882 0.115085125 -0.054037105 -0.07605172 -0.09470412 0.0749655 -0.027377544 0.09568919
0.056418717 0.046231266 0.044450063 0.01240913 0.017120767 -0.05757247 -0.01152922 0.013676812
-0.08799518 -0.06264982 0.084361315 -0.090033785 -0.0065723136 0.09713599 0.016039498 0.022175563
-0.06158336 0.06719241 -0.090948805 -0.052496046 -0.047164023 -0.010359323 0.0038061887 0.08906941
0.031522464 0.1130973 0.09373779 -0.06630493 0.033509012 -0.09479363 -0.053892735 0.030207437
0.035131942 0.103142425 -0.025098115 0.0142409485 0.10274196 -0.05519361 0.14986303 -0.040890083
0.06547957 0.043841813 -0.027842391 0.013904928 0.12455652 0.024448456 -0.0116407145 0.022239188

bias f4 [64]
00000000: ebc4 5e3d 432e 6cbc a848 773d 0bd3 353d
00000010: cb4f a33d b088 cc3d f270 36bc 5927 db3d
00000020: a7b5 9f3d b01c c9bc a950 d63c 7a37 9abc
00000030: 7163 e23d ca0a 4c3d 253a d9bd 86d0 983d
00000040: b1bd 143d bcc0 203e d7e6 e03d ed34 373d
00000050: e0ef c33d 8d24 3f3d 3da7 e53d b853 de3c
00000060: cd96 3a3d bac3 fabc 65d8 d03c e06b cfbc
00000070: 95f2 0bbd e566 a83d efa0 5f3d 72cd 23bd
00000080: 60d5 91bd dead a33d 32e8 a3bd df2b 38bb
00000090: 88ba b6bd 939f a63d 77aa cc3d 5ab4 b5bd
000000a0: 0c21 6dbd 9dfb b5bc 1928 fa3c 1297 63bd
000000b0: 565b f7bc 1411 b4bc cba5 bc3c 2b47 1ebd
000000c0: 2f37 8a3c c7c9 52bd 14bb 60ba b1d6 013e
000000d0: 9224 07bd 9ed7 ae3d b112 af3d f067 63bd
000000e0: ee4b f33a 6bdd 06bd 1465 053d 13d6 503d
000000f0: a5f8 cd3d a428 8d39 5893 58bd 77d3 7dbd
0.054387014 -0.0144153265 0.060372025 0.04439072 0.07974204 0.099870086 -0.011135327 0.10700864
0.07798319 -0.024549812 0.026161509 -0.018825281 0.11054123 0.049814977 -0.10606793 0.07461648
0.036313716 0.15698522 0.10981529 0.04472821 0.09567237 0.046665717 0.11213539 0.02713953
0.04555397 -0.030610908 0.02549381 -0.025319993 -0.03416689 0.082227506 0.054596838 -0.03999085
-0.07120776 0.07992147 -0.08003272 -0.002810232 -0.08922297 0.08135905 0.09993451 -0.0887229
-0.057892844 -0.022214705 0.030536698 -0.055563994 -0.03019492 -0.0219808 0.023028275 -0.03864209
0.016872017 -0.05146196 -0.00085727987 0.12679555 -0.03299386 0.085372195 0.08548487 -0.055519044
0.0018562058 -0.032926004 0.0325671 0.050985407 0.10057191 0.00026923895 -0.052874893 -0.061969247

weight f4 [32, 64, 1, 1]
00000000: 9d53 173c e682 863d 0ca1 edbd b6e2 59bd
00000010: 425f 5bbd 54c7 183d 2d37 19bd 4c01 acbd
00000020: df33 46bd 41dd 9c3c d2c9 5ebd 5b67 163d
00000030: 6b44 2a3c d2ae 82bd 0a4c c93d 85b6 eb3d
00000040: 838a 28ba e6dc 0ebd 48dd 0e3b 3100 9bbc
00000050: 3606 95bd 9730 f13d 3956 943d b365 26be
00000060: 6aed a0bd 7801 263e 8f62 afbd 190b a0ba
00000070: 725d e93d cffd e33c 57b8 173d 185b b5bd
00000080: 3131 f5bc 883e 143d 29e8 b1bd 92a8 85bd
00000090: c0d0 c93c e307 613a 17fb 983d d150 cabc
000000a0: afe0 de3d ba02 70bd 9189 f83d 6055 06bc
000000b0: 7d04 be3b 3b9b e43d f438 053e 38f6 073e
000000c0: 4604 6abe 9f9b 4dbd 612d dabb ac43 87bd
000000d0: da2d 983d c692 253d aa64 b3bc fb92 9a3b
000000e0: 6e1d 58bd c6c4 fd3d a6cb 833d 4d22 59bd
000000f0: a076 42be 2f23 313d 3f38 c73a b110 8bbd
00000100: ce13 06be 40c4 a1b9 3f0a 4ebd 4052 9bbd
00000110: 1d57 4e3c 3203 da3d cf70 b93d 5f63 713d
00000120: f760 ddbd 712e 743d 5a28 5f3d 69ca 033d
00000130: 3acd 55bd c235 87bc a2da 8abd fcaa 16bd
00000140: 8f4a 00bd 37cd bfbc eec7 08be 9618 ee3c
00000150: e51d ecbd e37b d8bd d9d8 1b3d a36a d7bd
00000160: c41f e53d db83 e23d 5ab8 49bd 5537 0fbd
00000170: f70f d5bd f926 12bc 6b06 113c d7b2 9dbd
00000180: ed19 053d a0c6 a9bc 9b45 4abd 881c 6fbc
00000190: ad5a 09be dea6 cbbd b316 453b 7352 dc3d
000001a0: 15fb c2bd 944f 9e3d dfbb ba3b 4847 5cbd
000001b0: 0996 c3b9 d394 433d a246 0d3b a2bb c73d
000001c0: 70a6 04bd a0e8 c7bd 0298 cd3d 5036 26bd
000001d0: 5b7c 883d 7e05 903d 5e75 4b3c 8d37 e9bd
000001e0: b289 01be 33ce 3f3d f31f 883c 72ac 803d
000001f0: 2246 e9bd 1ffc 46bd 3553 c23d db20 533d
00000200: a1fe 813e ed70 1d3e f3de d2bc fd0a 0dbe
00000210: 0858 68bd 3464 693d dcc9 613d 463c 903c
00000220: b0be 1c3d 549d 8a3d 617c b43d 1f2f e03d
00000230: 79c4 f2bc e3a3 eb3d 78b1 6fbd e2c0 3cbd
00000240: 9b62 15bd cd82 f9bd e92b 1b3e f9a8 d13b
00000250: 7e3e 2a3d bb0e 3f3d b54f 403b 8a0f 1a3d
00000260: 1a0b 1b3e 2771 0fbe b664 b5bd 174c ee3d
00000270: d2ad aabd f51b 353d 701e 053d c9a7 f43d
00000280: 8896 493d f1b1 61bc 25c0 da3d 4cda 1e3d
00000290: 37b6 ec3d 85d3 913c a78b 8a3d 134d 4d3d
000002a0: be21 153b 1c41 35be 0716 a1be 56e9 c63d
000002b0: fd7a 823d 7c7a 1fbd 5467 39bc 4e1a 4b3d
000002c0: 94e8 26be 75a0 b53c 5ee8 973d d286 143c
000002d0: 2771 36bc 9378 db3d dcfc 103e 692d d7bd
000002e0: 998d 98bc a050 a2bd 9a77 ac3d 6949 d33d
000002f0: 3379 f7bd f112 823d 5537 4bbd 0d9f 29bd
00000300: eb70 d13d 3e44 81bb d741 0c3e 2ddf 0fbe
00000310: 515b 6e3d 78a5 c3bd d0c3 ad3d bf30 ef3d
00000320: f3b8 b7bd 5e2a e9bd f916 2b3d f782 90bd
00000330: c976 06be 7849 a43d aa0f f13d 43c1 c0bc
00000340: 89a5 b13c bd93 edbd 0c7f eebd 2f43 e33d
00000350: eb22 ea3d 4183 57bc e297 34bd 435e 803d
00000360: a16f fdbc dcc3 abbd d20b 15be 17c1 d9bc
00000370: 3f3c 72bd 0397 783c c57f d03d d7e3 97bb
00000380: 5d36 1fbe 1f92 1dbc 6d7a d83d a205 4a3d
00000390: d762 893d 0df8 753d 7234 ea3d 4504 e4bd
000003a0: 314f e4bb c130 3ebe 63b7 5cbe 5204 aabd
000003b0: 92bb fbbd cb07 b4bd 4527 11bc be25 f73d
000003c0: 1423 b33d c5e8 783d 6f50 7cbd 7678 f8bd
000003d0: b036 843c 9dd9 cabd e7b9 703d c77a 083d
000003e0: 2ef0 b5bb 58a1 92bc 7d81 033e a584 9cbb
000003f0: 592c 2abe 32ba 3c3e 0dd8 053e 4540 a8bd
0.009236244 0.06567936 -0.11602983 -0.053194724 -0.05355764 0.03729947 -0.037406135 -0.08398685
-0.048389312 0.01914847 -0.05439169 0.03671966 0.010392289 -0.063810006 0.098289564 0.11509422
-0.0006429331 -0.034878634 0.0021799374 -0.01892099 -0.07276575 0.11776846 0.07243008 -0.16249733
-0.07857783 0.16211498 -0.085637204 -0.0012210339 0.113947764 0.027830986 0.037041035 -0.088552654
-0.029930683 0.036192447 -0.08686859 -0.06526293 0.024635673 0.0008584244 0.074697666 -0.02469674
0.10882699 -0.05859635 0.12135614 -0.008199066 0.005798875 0.1116242 0.13010007 0.13277519
-0.22853193 -0.05019724 -0.0066582416 -0.06604704 0.074306205 0.040423177 -0.021898586 0.0047172285
-0.05276244 0.12391047 0.06435327 -0.053011227 -0.18990564 0.043246444 0.0015199258 -0.06790293
-0.13093492 -0.0003085453 -0.05030274 -0.07584047 0.012594012 0.10645141 0.0905472 0.05893266
-0.1080951 0.059614602 0.05448184 0.032175455 -0.052197672 -0.016505126 -0.06779982 -0.036784157
-0.031321105 -0.023413284 -0.13357517 0.029064458 -0.115291394 -0.105705045 0.0380486 -0.10518386
0.111876994 0.11060306 -0.049248077 -0.034964878 -0.10403436 -0.008920425 0.008851628 -0.077001266
0.032495428 -0.020724595 -0.049382787 -0.014594205 -0.13413496 -0.09943937 0.0030073344 0.107579134
-0.09520546 0.07730022 0.0056986655 -0.053778917 -0.00037305083 0.04774935 0.0021556993 0.09752585
-0.03238529 -0.097611666 0.10038759 -0.04057914 0.06664344 0.070322976 0.012418119 -0.113875486
-0.12650183 0.046827506 0.016616797 0.06282891 -0.1139033 -0.048580285 0.09488527 0.051545005
0.2538958 0.15375109 -0.025741076 -0.13773723 -0.05672458 0.056980327 0.05512415 0.017606866
0.03826779 0.06768289 0.08812786 0.10946488 -0.029634701 0.11505868 -0.058518857 -0.046082385
-0.03647099 -0.121831514 0.15153469 0.006398317 0.041563503 0.046644907 0.0029344384 0.037612475
0.15140954 -0.14008008 -0.088571 0.11635607 -0.08333935 0.044216115 0.03249973 0.11946065
0.049215823 -0.013775335 0.1068118 0.038782403 0.11558192 0.017801056 0.06764918 0.05012233
0.0022755708 -0.17700619 -0.31462118 0.09712474 0.063711144 -0.03893517 -0.011316139 0.049585633
-0.16299659 0.022171238 0.074173674 0.009065347 -0.011135376 0.10716357 0.14158958 -0.10506708
-0.018622207 -0.07925534 0.0842125 0.10316736 -0.12083664 0.06351269 -0.049613316 -0.04141145
0.102266155 -0.0039449027 0.13696991 -0.14049979 0.058192555 -0.09553045 0.08484614 0.116792195
-0.08970823 -0.11385034 0.041769955 -0.070562296 -0.1313125 0.080218256 0.11770566 -0.023529654
0.021685379 -0.116004445 -0.11645326 0.11096799 0.11432441 -0.013153852 -0.04409016 0.06267979
-0.030937018 -0.083869666 -0.1455529 -0.02658133 -0.059139486 0.015172723 0.1018062 -0.004635315
-0.15548082 -0.0096173575 0.10570226 0.049321778 0.06708305 0.060051013 0.114357844 -0.11133627
-0.006967448 -0.18573286 -0.21554331 -0.08301605 -0.122916356 -0.08790549 -0.00885946 0.120677456
0.08746925 0.06076886 -0.061600145 -0.12132351 0.016139358 -0.09904788 0.05877104 0.033320215
-0.0055523133 -0.0178992 0.12842365 -0.0047765546 -0.1661848 0.18430403 0.13070698 -0.082153834

bias f4 [32]
00000000: d7cc 973d 1471 78bd f911 ac3d eacc e53d
00000010: 2a28 903d 91ea b73d 013e 72bd 0914 fc3d
00000020: f292 cebc 5767 963d 9f99 2b3d 7722 143c
00000030: 437f e93c 8cf5 a1bd d170 063e 3547 503d
00000040: 3a21 d23d a53d 2cbc 7966 43bd 92be ad3d
00000050: 2395 0b3c c3a9 7bbd 93de 333c 812a d5bd
00000060: 107f b9bd 549f 99bd c9fe 7a3c 1968 8ebd
00000070: ed4a 0f3c 5458 c2bd f503 ecbd 9026 51bc
0.07412117 -0.060654715 0.084018655 0.11220725 0.07038911 0.08980287 -0.059141163 0.12308509
-0.025216553 0.07343929 0.04189455 0.00904142 0.028503066 -0.079081625 0.13128974 0.05084916
0.10260244 -0.010512744 -0.047705147 0.08483614 0.008519444 -0.061441194 0.010978359 -0.104084976
-0.090574384 -0.075010926 0.015319535 -0.06953449 0.008745891 -0.094895035 -0.11524192 -0.012765542

weight f4 [1, 32, 5, 5]
00000000: d7c7 583b 1aa8 cb3c 7b68 24bc 707d 103d
00000010: 1e29 c9bc 2c6d 523c 0f1b febc 5091 0f3d
00000020: 83fb 35bc 4c79 aa3c bf0e 493b 8dab 4dbc
00000030: 0bb6 9fbb a692 37bc cca4 b73c bca1 dc3c
00000040: 261c 0f3d b6e8 bebb 1ff6 19bc c6a6 94bc
00000050: 2e52 eeba fca0 1b3c 647d 6fba b4b3 b4bc
00000060: d3ed d53a cc45 5a38 36d3 debc aaac 0bbc
00000070: a9e0 b1b9 b7ea 07bd df21 c53b 07ae 303c
00000080: 7e01 12bb 88f6 77bb d2e3 023b b9e7 253c
00000090: b0db 81bc 60ba 0fbb 2f6e af3c 2cdd 16bc
000000a0: 176a 8d3a 4270 01bd c25f d3bc ba1b 15bb
000000b0: cded 34bc 9fa6 103d 9bad d9bb 7c22 e9bc
000000c0: 7da3 ff3c 341c b2bc 8d08 f53c ab73 76bb
000000d0: 72d7 143c f0d8 0abd bb7f 053d f32c 583a
000000e0: fcd2 8dbc a1c4 b5bc b647 003c d74e 05bd
000000f0: a0b4 e53c 8c30 b13c 46d2 143d a6b6 0d3d
00000100: 1f43 9abc 61dc 15bc 29d2 ba3c 0f3c da3c
00000110: 7936 153d 46be 58bc 885b a33b 89cc d6b9
00000120: ee5e c13c dabf 80bc d716 093d 3217 2bbc
00000130: 2e79 8f3c efa1 e43c daf4 0ebd 9ab3 e43b
00000140: 643d c8bc c768 8b3c feff 013d 8427 25bc
00000150: 08fb bbbc 41a8 94bc 2ad1 ed3c 57d4 1fbb
00000160: 1ad6 c3bc ac58 fb3c 5b6e b83c 4803 27bb
00000170: a280 e23b 1612 cd3b 31ab 113d d537 a13c
00000180: 9711 f03b 8482 443b 4fed 533c 7c8c cebc
00000190: 54d7 a53c f642 7c3c 5384 d13b 1e7b b43c
000001a0: 5f82 c0bb 446a ffbc 709c eebc 0df0 113d
000001b0: f8e1 28bc 8f17 cdbc 5a09 123d 7952 c8bc
000001c0: 9178 023d 7fe3 073d 1b6a 61bb 6bf8 ab3c
000001d0: f059 dd3c 1342 01bd 2afb 93bc aa70 b53b
000001e0: 01af 3d3c 6593 c3bc 031a e2bc 2b75 0e3d
000001f0: 5e2a 7ebc 3063 0cbd ae6d 723c b113 84bc
00000200: d707 45bc fbff 3abc 20e9 083d 1557 613c
00000210: 4869 1d3d 8dbf 2cbc bcba e83c 39ac ddbc
00000220: 9409 bd3c 9971 ed3b fb9c ac3b e756 0e3d
00000230: 22c7 283b c8fe 7cbc 83f1 8abc 1ce1 e43b
00000240: fa75 16bc f36d 8d3c eee5 f7bc 3eff b3bc
00000250: 7427 013d b3a4 38bc 9f4e 09bd 0d62 d23c
00000260: 7bd5 94ba bc9c 8a3b edec ce3c f0da 8c3c
00000270: b8b6 ecbc 37eb 913c 907c 2c3d 32db 6a3b
00000280: 02a9 0f3d c854 2a3d 11bc ed3c 3d6e a5bc
00000290: f3b7 213d da4f 0a3d 4872 9c3c 7089 3a3c
000002a0: 5310 5cbc 3fe4 7c3c 7c9d 1dbc 03bc 193d
000002b0: 982c c1bc 0fb5 873c 0791 c13b f87d 283a
000002c0: fc12 abbb c4cf 893c b539 edbc 93d1 073c
000002d0: 8e4c c6bc 4bb7 143c 670d caba f72f df3b
000002e0: 2ee2 b23c 6cfb 7fbc 2bc9 fdbc 256e 73bc
000002f0: 67b6 fe3c c610 dfbc 21f5 ac3c be1c 5fbc
00000300: 2948 7b3b 839f 863c d9ee 2fbc 7e89 d1bc
00000310: f78b 503c 2dcc cd3c d62d 853c d808 0e3a
00000320: 22bb 03ba bbb9 373c 0aaa e93c 621b 0dbc
00000330: 8216 d83c e267 8dbb 4952 4abc a122 1f3c
00000340: 8b4e 613c 0415 6dbc 1455 82bc 0aa4 073d
00000350: e349 693d 83fa a9bc cb77 143d be75 00bd
00000360: b1d9 123b 1565 2b3d badc c3bc a965 a1bc
00000370: d83f 4ebb 142e f8bc 0ebd 47bc 8f37 05bd
00000380: 4de1 23bb cbab c03c d17b 2b3c 00ec 9fbb
00000390: 303d 0d3d 0076 e83c 6811 94bc e54e ae3c
000003a0: 5165 d8bb ab01 4f3c d754 9f3b a425 833c
000003b0: 33b0 8cbc aee1 80bc 8b29 9bbc 4af8 b1bc
000003c0: 6c68 70bc 702a 1a3c 204a 3d3c 33b8 023c
000003d0: c326 e13c d0ea e13c eb81 f13c 9f4c c03c
000003e0: 9308 623a aed8 233c 077d b2bc 0580 2fb9
000003f0: 13ae 9c3b 8478 e7bc 1d5a e93c c261 1ebc
0.0033078098 0.02486043 -0.010034676 0.035275877 -0.024555739 0.012843411 -0.031018762 0.03505069
-0.011107328 0.020809792 0.0030678955 -0.012553108 -0.004873996 -0.011204397 0.022417448 0.02693259
0.034938954 -0.005826081 -0.009397059 -0.01814593 -0.001818245 0.009498831 -0.0009135811 -0.022058345
0.0016321487 5.2040254e-05 -0.027200323 -0.008525053 -0.00033927456 -0.033182826 0.0060160006 0.010783679
-0.0022278721 -0.0037836153 0.0019972217 0.010126048 -0.015851825 -0.0021931157 0.021414844 -0.009208005
0.0010789064 -0.031601198 -0.025802497 -0.0022752122 -0.011043024 0.035315152 -0.00664301 -0.028458826
0.031205887 -0.021741964 0.029911304 -0.0037605565 0.009084569 -0.033898294 0.032592516 0.0008246444
-0.01731252 -0.022188487 0.007829597 -0.03254589 0.02804023 0.021629594 0.036333345 0.034598015
-0.018830834 -0.009146781 0.02280529 0.026639966 0.036428902 -0.0132289585 0.0049852766 -0.0004096965
0.023604836 -0.015716482 0.033469047 -0.010442542 0.017513838 0.027909247 -0.034901477 0.006979418
-0.024443336 0.017017735 0.031738274 -0.010080222 -0.02294685 -0.018146636 0.029030401 -0.002438804
-0.023905803 0.03068193 0.02251356 -0.0025484134 0.006912307 0.0062582595 0.03556365 0.019679943
0.0073263156 0.002998502 0.012934997 -0.025213473 0.020244278 0.015396824 0.006393948 0.022031363
-0.0058749164 -0.031178601 -0.02912733 0.03562932 -0.010307781 -0.025035648 0.03565345 -0.024453389
0.031853262 0.03317594 -0.003439552 0.020992478 0.027020425 -0.031557154 -0.0180641 0.0055371122
0.011577369 -0.023873994 -0.027600294 0.03477971 -0.015513031 -0.03427428 0.0147966575 -0.01612267
-0.012025795 -0.01141357 0.03342545 0.013753672 0.038430482 -0.010543716 0.028409354 -0.027059661
0.023075856 0.007246208 0.005267737 0.034750845 0.0025753458 -0.015441604 -0.016960865 0.006984843
-0.009183401 0.017264342 -0.030261006 -0.021972295 0.031531766 -0.011269736 -0.033522245 0.02568152
-0.0011355126 0.00423011 0.02525946 0.017194241 -0.02889572 0.017812354 0.04211098 0.0035836217
0.035073288 0.04158476 0.029020341 -0.020194167 0.03948207 0.03376756 0.019097462 0.011385307
-0.013431626 0.0154352775 -0.009620067 0.037532818 -0.023580834 0.016565828 0.005907181 0.0006427462
-0.005220769 0.016822703 -0.02895818 0.0082897125 -0.024206426 0.009076904 -0.0015415371 0.006811138
0.021836367 -0.0156239085 -0.030979713 -0.0148578035 0.031092836 -0.027229678 0.02111298 -0.0136176925
0.0038342571 0.016433483 -0.010738098 -0.025578257 0.012728683 0.025121773 0.016257208 0.0005418188
-0.00050251384 0.011213715 0.028523464 -0.008612486 0.02637792 -0.0043153623 -0.01234872 0.009712846
0.013751636 -0.014470343 -0.015909709 0.033115424 0.05695523 -0.020749336 0.036247056 -0.031362288
0.0022407586 0.041844446 -0.023908962 -0.019701796 -0.003147116 -0.03029541 -0.01219107 -0.032523688
-0.0025006116 0.023519417 0.010466532 -0.0048804283 0.03448218 0.02837658 -0.018074706 0.021277854
-0.0066038747 0.012634675 0.0048624086 0.01600916 -0.017173862 -0.015732612 -0.018940708 -0.021724839
-0.014673334 0.009409532 0.011553317 0.007978487 0.027484303 0.027577788 0.029480895 0.023474036
0.00086224935 0.010000391 -0.021788133 -0.00016736992 0.0047814935 -0.028255709 0.028485352 -0.009666862
