upscalers/model_3x.pth (torch, 35479 bytes, 5 tensors)

weight f4 [64, 1, 9, 9]
00000000: 8d0b 0cbe 52e4 8ebd 79b9 5cbe 9f17 4ebe
00000010: 0cb1 20be d817 05bd 33b5 38bd 139b 5a3d
00000020: 74f7 2fbd 6524 07be ca0a 3ebe 5fac 29be
00000030: ae2a 78be b229 4fbe 3b54 edbd 5339 30bd
00000040: 8285 103c dceb 053d 16c8 68be 0f7e 46be
00000050: 213e b8bd d019 adbc ae3e fabd db30 81bd
00000060: 0b30 ebbd 7054 05bd 313f 873d 7527 0bbe
00000070: 14ce cebd 9bc3 35bd e604 bebc e7c0 1c3e
00000080: 334d 0dbe 1c04 60be ff7b efbd a4b2 31be
00000090: a081 0dbd abd3 0a3e 48cb c73d 8c7d 053e
000000a0: 0d7e fc3d 0a9f ff3b a64e 6abc eded 14be
000000b0: bf67 eebd 6dff 3fbd cf3a b13d 6ae5 ad3d
000000c0: b6a4 a5bb 5057 a13d b4ea db3d c3ed 693d
000000d0: 8526 23bc d1b6 d4bc 0008 853d 4725 8fbd
000000e0: 82aa 733c 0c37 97bd c274 06bd 5360 6ebd
000000f0: 45b6 0bbd 45c3 f8bc 6393 e8bd 6674 3b3c
00000100: 2372 373d 9716 0dbd 5d81 86bb 298d 2a3d
00000110: 7f32 163d 68a5 07bc 1787 3cbe 6918 bebd
00000120: dcce af3c 0420 9e3d 779d 993d 9441 a93d
00000130: 4b23 c03c 7567 18be 3ca6 ffbd 782a 3ebe
00000140: 68e9 23be 3aec d83d 7cc6 c43d c8d7 bbbd
00000150: fa99 103d 4aae 5ebb 9b12 0dbc a293 17bd
00000160: 4e58 723d 7f11 2abd 943a 583d 0df2 883d
00000170: 008a c03d bfcc 503d c480 cabd bdc1 8abd
00000180: 9bc6 863d 7baf 233d f2f0 60bd a5c6 58bd
00000190: bb6b e73d 6857 bb3d 7dc6 eebc ac24 dcba
000001a0: 32fb b8bd 993a 523c de30 8ebd d411 64bd
000001b0: 687c 4c3b fd14 b63c 40dd b1bc cc10 e13d
000001c0: 2783 12bb eb20 193e 27b4 dd3d 49e6 9cbd
000001d0: b3fa 9cb9 9394 3a3c c9e1 963c 785d 563d
000001e0: 65ac ce3d c9c7 c13d 47ee 703c d46e c13d
000001f0: 885f bbbd c4dd 38bd 1bcb c2bc b756 6dbd
00000200: 919f c8bc fdb5 4abd ce69 423d 2eef 9f3d
00000210: 1053 22bd 6c67 df3b defe cc3d 1291 f6b9
00000220: 827d a63b e50b a23a ae8b 493d 6124 ef3d
00000230: 8959 0d3e ac30 bf3d 8330 f43d 6544 8a3c
00000240: 1b0f b4bd bb56 3cbd 0911 a93d 7656 373c
00000250: a5ba 12bd f7e6 9bbd 5667 bebd e526 acbd
00000260: 0328 8eba 339b 903d 2a53 943d a08e c0bd
00000270: 4d2b a93d 552a 92bd b680 90bc 7851 10bd
00000280: 1504 64bc e5f4 12bc 794d 87bd b401 7ebd
00000290: 39ac 103a 3d30 463c 1278 39bd f3fe 603d
000002a0: 1545 cfbd a78e bbbc dac3 613d 0c11 38bd
000002b0: 0d98 cd3d bf41 223d d107 c5bd 17d7 973d
000002c0: 751f 0e3b 154d 14bd 69d9 b93d ce3e f7bd
000002d0: 5009 d03c 1365 2f3c 8976 003e 859a aa3d
000002e0: 18d4 a83d 8018 5e3d 98c4 b1bc 77d3 76bc
000002f0: c672 c2bd 2f6d ea3c dcee dc3d 01b3 093e
00000300: 1d03 92bb 9cf3 0a3d 0b28 c2bd ef8f acbd
00000310: 254b 58bd 6e47 893d 33d6 d5bd b8c4 de39
00000320: 8471 483d 9dc0 043e 8329 7dbd f215 c4bd
00000330: f934 c9bd afb1 bf3d d633 9bbb 5168 323d
00000340: d213 b73c 8081 f63c 52c8 3a3d 7f77 a93c
00000350: ab4b e83c eebe 26bd adf3 1d3b 2b32 833c
00000360: 6df4 08be c732 b6bd 9190 9d3d 32e1 a3bd
00000370: d396 893c a9a1 013e 758c 433d 9872 1a3d
00000380: 3b27 83bd d020 5e3d 5c41 b7bd 3cb9 1bbd
00000390: 0c22 1bbd 57ca fcba b372 883c 271e c63d
000003a0: 76c5 963c 184f 9a3d d21a d13d 3f19 46bd
000003b0: 0932 8c3d 41eb 91bd 3aa1 2dbd 1748 133d
000003c0: 8905 0f3d b3c9 9b3d b104 9bbd 9341 be3c
000003d0: ee69 b83d ac94 87bd 3376 133e 95f8 2ebd
000003e0: 5b82 843d 8e56 3b3d 9db4 26bc 0e23 5a3d
000003f0: 668e ef3d f055 3c3c c626 34bc e4d0 f93c
-0.13676281 -0.069771424 -0.21555127 -0.20126198 -0.15692538 -0.032493442 -0.04509468 0.053370547
-0.0429606 -0.13197477 -0.18558803 -0.1656966 -0.24235031 -0.20230749 -0.11588331 -0.04302342
0.008820893 0.032695636 -0.22732577 -0.19384025 -0.08996225 -0.021130472 -0.122189865 -0.063081466
-0.11483773 -0.03255123 0.0660385 -0.1358927 -0.100979 -0.044375997 -0.023195695 0.15307961
-0.1379898 -0.21876568 -0.11693572 -0.17353302 -0.03454745 0.13557307 0.0975557 0.13036174
0.1232873 0.0078009414 -0.014300978 -0.14543886 -0.11640882 -0.046874452 0.08653795 0.08491023
-0.0050550355 0.07877982 0.107381254 0.057111513 -0.009957914 -0.02596608 0.064956665 -0.06989532
0.014872195 -0.07383546 -0.032826193 -0.05819733 -0.034109373 -0.03036655 -0.11356237 0.011441326
0.044786584 -0.03444537 -0.004104777 0.041638527 0.03666925 -0.008279182 -0.18410908 -0.092819996
0.021460943 0.0772095 0.07500737 0.08264461 0.023454329 -0.14883216 -0.124828786 -0.18570888
-0.16007006 0.10591932 0.096081704 -0.091720164 0.035303093 -0.0033978396 -0.008610393 -0.037006028
0.059166245 -0.04152059 0.05279024 0.066867925 0.094013214 0.05097651 -0.09887841 -0.06775234
0.0658085 0.039962273 -0.054917283 -0.052923817 0.11299845 0.09147531 -0.029147381 -0.0016795597
-0.09032287 0.012831354 -0.069429144 -0.055681065 0.0031202082 0.022226805 -0.021711946 0.10989532
-0.0022356005 0.14953963 0.10825377 -0.07661111 -0.00029941424 0.011387962 0.01841821 0.052335232
0.100914754 0.09461934 0.014705247 0.09444967 -0.091490805 -0.045133367 -0.023778489 -0.057944026
-0.02449015 -0.049489964 0.047464184 0.07809292 -0.039629996 0.006817749 0.100095496 -0.00047028862
0.0050808797 0.0012363164 0.049205475 0.116768606 0.13803686 0.09335455 0.119233154 0.016878316
-0.08791944 -0.04598115 0.08255202 0.0111900475 -0.03582253 -0.076124124 -0.092970535 -0.08405856
-0.0010845665 0.07060852 0.07242425 -0.094022036 0.08260212 -0.071369804 -0.0176395 -0.035233945
-0.013916989 -0.00896952 -0.066065736 -0.062013343 0.0005518827 0.012096462 -0.045280524 0.05493064
-0.10120598 -0.02289517 0.05511842 -0.044938132 0.10038767 0.03961348 -0.096206315 0.07414072
0.002168623 -0.036206324 0.09074671 -0.12072526 0.025395066 0.01070525 0.12545218 0.083302535
0.08243579 0.054222584 -0.021700189 -0.015065066 -0.094945475 0.028616516 0.10787746 0.13447191
-0.0044559375 0.03392373 -0.09480294 -0.08425891 -0.05280604 0.06703077 -0.10441246 0.00042489707
0.048936382 0.12964101 -0.061807167 -0.09574498 -0.09824557 0.09360062 -0.004736404 0.043556515
0.022348318 0.030091047 0.045601197 0.020686863 0.028356394 -0.04070943 0.002410154 0.016015133
-0.13374491 -0.08896404 0.076935895 -0.08001937 0.016795551 0.12659325 0.047741372 0.03770694
-0.06403967 0.05423051 -0.08948013 -0.03801845 -0.037874267 -0.0019286376 0.016656255 0.0967372
0.018404704 0.07534617 0.10210194 -0.04836392 0.06845481 -0.07124949 -0.042390086 0.035957422
0.034917388 0.076068304 -0.07569254 0.023224628 0.090045795 -0.06620154 0.14400558 -0.042717535
0.06470176 0.04573684 -0.0101748975 0.053256087 0.11697082 0.0114950985 -0.010995572 0.030495115

bias f4 [64]
00000000: 9f26 193d 31fd 7dbc 235a 4a3d a776 573d
00000010: eb72 ba3d 1403 c73d 215d a43b cd85 dd3d
00000020: 9572 9b3d b76b e83b df8c 1f3d 90ca 08bd
00000030: 50b8 d93d 80ef 303d 253a d9bd c7fb 013d
00000040: 035d b0ba 0c3f ed3d d7b6 ea3d 2f8d 3a3d
00000050: 956a 833d 99db 4b3d 5616 003e 0913 8c3c
00000060: 18ac 143c cf3f a7bc 46fc fc3b c9f9 a3bc
00000070: c0b2 03bc 3263 a03d 3ea2 453d 7a74 5bbc
00000080: 3363 82bd c66f bf3d 5141 9abd c47f 263c
00000090: 7ddb 82bd 7804 b03d 21c6 c73d 7c0f 5cbd
000000a0: 7fa8 33bd e6f6 9abc ed67 643d 1297 63bd
000000b0: 113f 03bd d5ea 82bc 34c6 cd3c aa98 ffbc
000000c0: 98d3 8e3d 3944 5cbd 9e63 583b 52be 143e
000000d0: 4094 a1bc 2a9f af3d 288e bc3d 3fe8 5fbd
000000e0: b2b9 efbb a912 4cbc 22ea e13c 4338 2a3d
000000f0: 1b46 073e be0f 0abb 9adc 4cbd 8f6e 54bd
0.037390348 -0.01550226 0.049402367 0.05260339 0.0910395 0.09717384 0.0050159846 0.10816536
0.07590214 0.0070929187 0.038952705 -0.033396304 0.10630858 0.043197155 -0.10606793 0.031734254
-0.0013455454 0.11584291 0.11460655 0.0455448 0.06416813 0.04976997 0.1250852 0.01709892
0.0090742335 -0.020416168 0.007720503 -0.020016568 -0.008038223 0.0783142 0.04825043 -0.013394469
-0.06366577 0.09347491 -0.07531989 0.010162298 -0.0638952 0.08594602 0.09754587 -0.053725705
-0.043861862 -0.018916558 0.055763174 -0.055563994 -0.032042567 -0.015981117 0.025118925 -0.031200726
0.06973952 -0.053776 0.003301836 0.14525726 -0.019724011 0.0857528 0.09206802 -0.054664847
-0.007315838 -0.012455621 0.027577464 0.04155756 0.13210337 -0.0021066512 -0.05001507 -0.05186325

weight f4 [32, 64, 1, 1]
00000000: 36c6 56bd defb 523d f742 dabd 4c7b 35bd
00000010: 641a 70bd b14d 6c3d d596 2bbd 82f5 aabd
00000020: a195 15bc 5a93 a1bd 11f2 9abd 0d22 473d
00000030: d4cf 8c3c 2570 5abd 0a4c c93d be91 203e
00000040: 44c8 e13b 4c3b 273c 8ee2 383b 8784 dabc
00000050: f8d3 89bd 2dfb e23d 45a6 943d 4188 edbd
00000060: a412 3abd 6fb5 223e 88d6 cdbd 84c0 e0bb
00000070: 1a41 f43d 0701 1b3d 44b4 4e3d 2f08 60bd
00000080: 07dc 203d 2096 ed3d 73cb 9ebd 8efa 92bd
00000090: a94b 4e3c 912a 5f3b 78d0 8c3d 4763 dfbc
000000a0: dea5 b13d 0aaa 433c e597 9b3e 6055 06bc
000000b0: 96aa bf3b 8a83 ca3d b62d 0e3e 699c 043e
000000c0: 5f23 44be 9fca 72bd 85c4 06bc 04dc 3cbd
000000d0: 9ea8 943d b46d 9a3d b1c2 20bd 3109 a43b
000000e0: 5e8d 96bd f83b 0b3e 1123 993d d208 c2bd
000000f0: 04ef 18bd 546c 583d f75f 233c e2bf 96bd
00000100: f101 06be 9fe0 2cb7 8c8c 4dbd 478b 97bd
00000110: da07 4f3c 3ad6 d93d 3aab ba3d 2c67 713d
00000120: 8bf4 dbbd 2bd2 743d e6d9 5e3d e6fc 043d
00000130: fe52 62bd 862c 86bc a2da 8abd 4fdc 15bd
00000140: 2464 01bd fff0 c0bc debe 08be fdab ef3c
00000150: d30e ecbd 6718 d8bd 36d5 1c3d 4a22 dbbd
00000160: edc5 e43d d0b7 e23d 4ad9 47bd 789a 0ebd
00000170: 8c6a d4bd 4d08 0fbc b683 123c 4fef 9abd
00000180: 0c9c 053d fdd7 a9bc 8b32 49bd 1c36 6dbc
00000190: 7049 09be 8e94 cbbd c072 3f3b cdb8 dc3d
000001a0: e4fa bfbd b4a0 9e3d 7da1 c23b 4847 5cbd
000001b0: fe72 55ba 5d6e 433d 4ce6 093b 7e01 c83d
000001c0: 84f2 04bd 8bcc c7bd c8af cd3d 0ba0 25bd
000001d0: 47b0 883d 0e87 903d 9f5e 5a3c ed0d e9bd
000001e0: 21c6 01be 0923 3f3d be7f 893c 5c75 803d
000001f0: 2930 e9bd 221a 42bd aba2 c23d e7fc 533d
00000200: ec8e 9f3e 1fca 153e 7db0 2fbd d718 0fbe
00000210: f3ba 6abd caed 473d f6d3 713d 1185 8e3c
00000220: 4450 093d 1e18 2d3d a68a df3d cfbe c43d
00000230: d83c 44bd 6978 ee3d 78b1 6fbd 4f81 9bbd
00000240: 9511 0bbd 5fcd cabd 18ec 063e a3e2 213c
00000250: c25b 243d c1b9 373d 8122 073b 999b 893c
00000260: 74f5 cb3d 378a fbbd 8b28 14bd 0211 e03d
00000270: 91a0 debd 8658 653d 88e7 003d 9e21 0b3e
00000280: 0479 2f3d 7264 663d 1dab d03d b763 0f3d
00000290: f043 ef3d 1ad8 713b aba9 8d3d c425 3f3d
000002a0: 3c87 30bc d865 13be f803 9ebe 56e9 c63d
000002b0: 6ccd 823d 33fa 20bd f095 59bc f32c 563d
000002c0: 8ab7 d5bd b909 183d b1c4 973d d363 e03b
000002d0: 079f a9bc 5306 c73d 0d12 1c3e 2642 e0bd
000002e0: ba92 02bd 7468 babd 8eb0 b23d fd5c b93d
000002f0: 28f7 febd fa7c 6f3d b940 5dbd bc47 27bd
00000300: 7a58 3b3d 2f20 47bc fa1b 063e 9490 18be
00000310: 869b 3e3d cfbc ccbd cf9d bf3d 74ae dc3d
00000320: bd77 92bd 00b4 a0bd 91de d83c 8cc7 b9bd
00000330: df5a 16be 0d86 9f3d aa0f f13d 970e aabc
00000340: 70b0 273c ffcf a4bd f9e3 02be 036d df3d
00000350: 2ba4 e03d bbfd 4abc 9a79 63bd 80d1 e43d
00000360: 63b8 2dbd 990b d5bd 9322 09be 54d0 b4bc
00000370: 4b83 19bd f5d4 ee3a b07d d53d 58bf 13bd
00000380: 91b4 92be d1a7 e83d 1d93 df3d ae42 463d
00000390: 9597 703d cfba 5b3d 2815 da3d a4e1 dabd
000003a0: 6e11 c4bc 5df9 03be db0c 67bd 5204 aabd
000003b0: 95cd f9bd 79ea a5bd 16c4 44bc 837a ee3d
000003c0: 56c0 b73d 78e3 703d e65e 9fbd c69d cebd
000003d0: 7041 753c 3a56 d4bd db5a 603d 6d8c b63c
000003e0: 83f2 a4bc b6af ecbb 5bda 013e 7c0e 46bd
000003f0: 53ac 03be bfdc 473e 6a3f 0b3e 1260 a6bd
-0.052435122 0.05150973 -0.10657304 -0.04430704 -0.058618918 0.05769128 -0.04189189 -0.08347608
-0.009129913 -0.07889433 -0.07565702 0.048616458 0.017188944 -0.053329606 0.098289564 0.15680596
0.0068903286 0.010207009 0.002821121 -0.026674522 -0.06729883 0.11083064 0.07258276 -0.11598254
-0.045427933 0.15889524 -0.10050684 -0.006858887 0.1192648 0.037842777 0.050464883 -0.054695304
0.039272334 0.116009 -0.077536486 -0.07176696 0.012591281 0.0034052471 0.068757 -0.027269019
0.08674215 0.011942396 0.30389324 -0.008199066 0.005849193 0.0988837 0.13884625 0.1295029
-0.19154118 -0.059275266 -0.008225565 -0.04610826 0.07258724 0.075404555 -0.039248172 0.0050059785
-0.073511824 0.13597095 0.074773915 -0.094743386 -0.037337318 0.052837685 0.00997161 -0.073608175
-0.13086678 -1.0304298e-05 -0.050182864 -0.07399612 0.012636149 0.106365636 0.0911469 0.058936283
-0.10740002 0.059770744 0.054407023 0.032467745 -0.05525493 -0.016378652 -0.06779982 -0.036587056
-0.031589642 -0.023552416 -0.1335406 0.029256815 -0.11526265 -0.105515294 0.03828927 -0.106998995
0.11170564 0.11070216 -0.048791207 -0.03481528 -0.10371885 -0.008730006 0.008942535 -0.07565176
0.03261952 -0.020732874 -0.049120467 -0.014478233 -0.1340692 -0.09940444 0.0029212683 0.107774355
-0.093740255 0.077454954 0.005939661 -0.053778917 -0.00081424403 0.047712673 0.0021041809 0.097659096
-0.032457843 -0.0975581 0.10043293 -0.040435832 0.06674247 0.0705701 0.0133282235 -0.11379609
-0.12673236 0.04666427 0.016784545 0.062723845 -0.11386139 -0.047388203 0.09503683 0.05175486
0.31163728 0.14627884 -0.04289292 -0.1397432 -0.057307195 0.048810758 0.059040032 0.017397435
0.033523813 0.042259328 0.10915117 0.09606706 -0.047909588 0.1164406 -0.058518857 -0.07593023
-0.033952314 -0.09902453 0.13176 0.009880695 0.04012657 0.044854883 0.0020619931 0.016797828
0.09958926 -0.12282222 -0.036171477 0.10940744 -0.10870469 0.055992626 0.031470805 0.13587043
0.04284002 0.056248136 0.10188887 0.035007205 0.1168288 0.0036902488 0.06917127 0.046666875
-0.01077443 -0.14394319 -0.30862403 0.09712474 0.06386837 -0.03930111 -0.013280377 0.05228896
-0.10435398 0.037118647 0.07410563 0.0068478375 -0.020705713 0.09718003 0.15241261 -0.10950117
-0.03187821 -0.09101954 0.087250814 0.09050939 -0.12449485 0.058468796 -0.054016802 -0.040839896
0.045738675 -0.012153669 0.1309661 -0.14898902 0.046535037 -0.0999695 0.093562715 0.10775462
-0.071517445 -0.07846832 0.026473315 -0.09071264 -0.14683102 0.0778924 0.11770566 -0.02075891
0.010234937 -0.080474846 -0.12782277 0.10909464 0.109688126 -0.012389596 -0.05553589 0.111727715
-0.042412173 -0.10402603 -0.13392095 -0.022071995 -0.037478726 0.0018221425 0.104243636 -0.03607115
-0.28653386 0.113601334 0.109167315 0.048403434 0.05873831 0.05364495 0.106485665 -0.10687569
-0.023934092 -0.12888093 -0.056408744 -0.08301605 -0.12197415 -0.08101363 -0.012009641 0.11644461
0.08972232 0.05881068 -0.07781772 -0.10088687 0.014969215 -0.10368009 0.054774147 0.022283757
-0.02013517 -0.007223095 0.12680952 -0.048353657 -0.12858705 0.19517802 0.1359841 -0.08123793

bias f4 [32]
00000000: bbbd a03d 3b1d 78bd c48a a43d 9a63 d43d
00000010: f577 863d f9b2 8c3d de15 6cbd 8684 203e
00000020: 9a27 39bd 17e1 953d 6edc f23c 3f8e 193c
00000030: c4ce 013d 0775 99bd 0016 c63d 93d0 b03c
00000040: f1d1 d73d 6088 a8bb 7928 44bd 0c95 a43d
00000050: beff 0db9 b48a 75bd 62dc 2d3c 971f b4bd
00000060: 4620 b7bd 9eb5 8cbd b10d 943c d16a 96bd
00000070: f8ac bb3c 7a58 d8bd df3d ebbd cedb 54bc
0.07848688 -0.06057475 0.0803428 0.1037056 0.06565849 0.06870074 -0.05763804 0.15675554
-0.045203783 0.07318323 0.029646125 0.009372293 0.031691328 -0.07493024 0.09672165 0.021583831
0.1053809 -0.0051432103 -0.04789016 0.08036241 -0.00013542079 -0.05994673 0.010611625 -0.08795088
-0.089417025 -0.06870578 0.018072935 -0.07344592 0.022909626 -0.105637506 -0.1148641 -0.012991859

weight f4 [1, 32, 5, 5]
00000000: de71 363b 0e72 c83c d5de 25bc 9c52 133d
00000010: f95e c7bc 0dd3 473c 4695 01bd 4517 0e3d
00000020: a2e7 38bc b558 a93c a32a 363b 1143 57bc
00000030: d35c a2bb da07 40bc 03c7 b73c 632b e53c
00000040: a34d 0e3d 50c2 d6bb ee93 27bc bd33 91bc
00000050: ba09 48b9 4210 243c 5d39 01bb 2c02 bcbc
00000060: b55d 233b ef14 0c38 9beb debc d9c5 0bbc
00000070: 742f b6b9 4ef9 07bd 279b c43b 5484 303c
00000080: 754f 12bb f65b 78bb bd1d 023b 79a4 253c
00000090: 21f1 81bc 202c 10bb eb5d af3c 8716 17bc
000000a0: 8bf3 8a3a 127e 01bd 6177 d3bc 6bf6 15bb
000000b0: 8b39 35bc 93a2 103d b85c d9bb fe22 e9bc
000000c0: e8a4 ff3c 2424 b2bc 50b1 f43c 98d7 89bb
000000d0: 00e7 093c 0689 0cbd c360 053d 687e 1f3a
000000e0: a255 91bc dc95 bcbc 362a da3b 0846 08bd
000000f0: 9689 e43c f100 b43c 049c 163d 5ce6 0b3d
00000100: 0624 a1bc c025 21bc a0db b93c 80e4 da3c
00000110: 408e 133d 348e 60bc 7aa1 853b e8b3 91ba
00000120: 0509 be3c 5b93 83bc 1fa8 083d 8a34 0fbc
00000130: 71ad 973c ba97 e63c 5171 0fbd 1f7a e73b
00000140: d2eb c3bc 1675 8b3c 9f69 013d 28f0 30bc
00000150: 6171 c0bc 83e2 97bc f814 ed3c c6a4 f4ba
00000160: 4cd4 c2bc 10f4 f73c 132d b23c 2261 3ebb
00000170: fa6a ea3b f224 cd3b 989b 103d 128c 9d3c
00000180: fed5 ea3b c581 4a3b c3d1 553c 25f7 d0bc
00000190: 1e8d 9e3c fe55 793c 3920 dd3b 0a50 b53c
000001a0: fe4f c6bb 8efa 02bd 0552 efbc f7e6 123d
000001b0: ca6c 2dbc 7aec cfbc ef82 113d da76 c8bc
000001c0: 7c2f 033d 4893 063d 5f82 6abb 4cb8 b23c
000001d0: 5469 de3c e041 02bd d27e 97bc 2bca b33b
000001e0: 035b 4d3c 5ac4 c3bc aec2 e8bc b4ff 0b3d
000001f0: 44b8 7dbc c9fe 10bd 3f8b 583c 1612 93bc
00000200: 217e 61bc 7d8e 4cbc 204f 063d 5f2c 583c
00000210: 01b6 1b3d 9a3c 38bc 1af8 e53c c6f2 dbbc
00000220: bd5d c13c 446f 0a3c 9c27 bd3b d45e 0f3d
00000230: f7b8 483b 9f90 7fbc b5c2 8dbc c106 c73b
00000240: 5b38 21bc 3953 8f3c 0804 00bd a4e1 c1bc
00000250: 7b4a f73c 2bda 3bbc 8d62 0fbd 6006 c03c
00000260: 2897 58bb bb12 e53a 05d7 ca3c 4499 7e3c
00000270: a480 f7bc f01d 883c 9f3f 243d fd37 303b
00000280: b6cd 0f3d c456 2d3d 7005 f23c a3e9 aebc
00000290: 58f1 1c3d c465 0d3d c6a5 a23c a37b 393c
000002a0: abb0 6ebc 1a2e 773c 30f1 06bc 6c2f 1a3d
000002b0: dce3 cbbc 7e86 7c3c 9e74 d53b 9338 983b
000002c0: fedc 5dbb cef2 883c 1f71 e8bc 582b 143c
000002d0: c990 c3bc f6b8 fa3b 6be5 57bb b99e f13b
000002e0: 5e8c bd3c 4849 97bc 5473 08bd 3ba5 6dbc
000002f0: 80d3 0d3d e3dc c2bc efc5 993c 0501 59bc
00000300: 49fa df3b d93c ac3c b356 03bc 4720 d7bc
00000310: afcd 853c 71ec f53c 4d22 a33c ccbe 3a3a
00000320: 31dd 0ebb c3b8 cb3c e67b 1e3d 664c a3bc
00000330: 1324 0f3a 9aeb 563b fa32 0b3c 229c 113d
00000340: 7872 3fba ae96 1bbd 1f36 52bc 8dca 2a3d
00000350: 26a3 893d 1103 18bd dfc0 b53c 0363 44bd
00000360: 5429 8fbc 555d 833c 568b 77bd 3c3e 09bd
00000370: 4fb8 88ba 7f8c f3bc 64cc 9bbc 256d 27bd
00000380: 2d63 a43a fd35 c23c c253 2d3c c7f2 9fbb
00000390: 1745 0d3d f00b ec3c aa7c 94bc 51e1 aa3c
000003a0: 6736 edbb de3c 483c 4ba4 9f3b 5edd 7e3c
000003b0: 6121 92bc c6cb 84bc ef23 9abc 693e aebc
000003c0: 628f 7dbc 669f 0d3c 1ff2 333c 34e2 013c
000003d0: 3788 e23c 5250 df3c 3f06 f03c aafe c03c
000003e0: 8dc8 963a ee57 243c 2b09 c9bc 7b05 5cbb
000003f0: e369 cc3b 3ca0 d2bc 3fa3 fc3c 3722 46bc
0.0027838866 0.024468448 -0.010123928 0.035967454 -0.024337279 0.0121963145 -0.0316365 0.03469016
-0.011285694 0.020672182 0.002779641 -0.0131385485 -0.004954913 -0.011720622 0.022433763 0.02797479
0.03474201 -0.0065539256 -0.01022814 -0.017724866 -0.0001907711 0.010013642 -0.001971803 -0.022950254
0.002492768 3.3398097e-05 -0.027211955 -0.008531057 -0.000347491 -0.03319674 0.005999941 0.010773737
-0.0022325192 -0.003789661 0.0019854151 0.010110014 -0.01586205 -0.0021998957 0.021407088 -0.0092216795
0.0010601146 -0.03161437 -0.02581376 -0.0022882472 -0.011061083 0.035311293 -0.0066333674 -0.028459068
0.031206563 -0.021745749 0.029869705 -0.004206609 0.008416891 -0.034310363 0.032562982 0.00060842047
-0.017741028 -0.023020677 0.006657864 -0.033269912 0.027897637 0.021973105 0.03676988 0.034155235
-0.019670498 -0.00983566 0.022687733 0.026720285 0.036024332 -0.013705779 0.0040780874 -0.0011116238
0.02319766 -0.016061476 0.033363458 -0.008740554 0.01851532 0.02814852 -0.035020176 0.0070641185
-0.023916159 0.017023604 0.03159487 -0.010799445 -0.023491563 -0.018540626 0.028940663 -0.0018664829
-0.023782872 0.030267745 0.021750009 -0.0029049595 0.007153866 0.0062605077 0.035304636 0.01923183
0.007166623 0.0030900103 0.013050499 -0.025508473 0.0193544 0.015218256 0.006748226 0.022132892
-0.0060520163 -0.03197723 -0.029213915 0.035864796 -0.010585019 -0.025381315 0.03552526 -0.024470735
0.032027707 0.032855302 -0.0035783274 0.021816395 0.027149834 -0.031801105 -0.01849309 0.005486747
0.012533906 -0.023897339 -0.028413143 0.034179404 -0.015485827 -0.035399232 0.013216793 -0.01795296
-0.013762982 -0.012485144 0.032790303 0.013194173 0.03801537 -0.011244917 0.028072406 -0.026849162
0.023604268 0.008449379 0.005772544 0.035002545 0.0030627826 -0.015598445 -0.017304758 0.006073803
-0.009840096 0.017495738 -0.031253844 -0.023667164 0.030186882 -0.0114655895 -0.035006095 0.02344054
-0.003304908 0.0017476896 0.024760732 0.015539471 -0.030212708 0.016615838 0.040099736 0.002688884
0.03510829 0.042319074 0.029543608 -0.021351641 0.0383161 0.03452088 0.019854438 0.011320981
-0.014568488 0.015086675 -0.0082362145 0.03764288 -0.024888925 0.015412925 0.006514146 0.004645416
-0.0033853645 0.01671734 -0.028374253 0.009043537 -0.02387275 0.0076514436 -0.003294314 0.0073736575
0.023138221 -0.01846756 -0.03331311 -0.014504726 0.03462553 -0.023786968 0.01877114 -0.013244872
0.0068352562 0.021025108 -0.008016276 -0.026260508 0.01633343 0.03001997 0.019913817 0.0007123768
-0.002179932 0.024868375 0.038692378 -0.01993389 0.00054603926 0.0032794238 0.0084960405 0.03554929
-0.0007303129 -0.037985496 -0.012830286 0.041697074 0.06720571 -0.0371123 0.022186695 -0.047945987
-0.017475761 0.016035715 -0.060435615 -0.033506617 -0.0010430905 -0.02973008 -0.01901836 -0.040875573
0.0012541764 0.023707384 0.010579051 -0.0048812362 0.034489717 0.028814286 -0.01812585 0.020859392
-0.0072391513 0.012221543 0.00487188 0.015555708 -0.017838182 -0.016210448 -0.018815963 -0.021269994
-0.01547608 0.008643961 0.010983019 0.007927466 0.027652843 0.02725998 0.029299853 0.023558933
0.0011503861 0.01003073 -0.024540504 -0.0033572603 0.0062382086 -0.025711171 0.03083956 -0.012093118
